reinforcement-learning-snake/model/model.pth (torch, 16799 bytes, 4 tensors)

linear1.weight f4 [256, 11]
000000 23 af 09 3e c9 d4 26 3e 98 4c b4 3d 48 2c 25 bd
       0.13445716 0.16292109 0.088036716 -0.040325433
000010 59 a6 02 be f8 d2 2e bd 21 c0 4b be f8 6f d7 be
       -0.12758769 -0.042681664 -0.1989751 -0.42077613
000020 4f 08 b1 be d6 80 e1 3c 98 fa b4 3d 0c d2 f8 3d
       -0.3457665 0.027527254 0.088368595 0.12149438
000030 a8 e6 2a bf 18 c6 75 3e 9c b2 a7 be 51 11 4e 3d
       -0.66758204 0.24001348 -0.32753456 0.050309483
000040 c5 c1 70 3e db 5a 20 3e f1 1a 72 be 3d 4e e4 bd
       0.23511417 0.15659659 -0.2364309 -0.11147735
000050 97 34 ad bd 62 5e 82 be 7b af 3c bf 42 dc 5a 3e
       -0.08457296 -0.25462633 -0.7370526 0.21373084
000060 97 f6 13 3e 28 ee 23 3e 93 54 08 3e bb 1c 44 bf
       0.14449535 0.16008818 0.13313513 -0.7660634
000070 40 83 04 bf 09 3f 86 3d 3b 6c dd 3d fb ea 32 bf
       -0.5176277 0.06554992 0.10811659 -0.698898
000080 42 cc 0e bf 46 81 d1 3e 39 1a 0e 3f 83 08 9d be
       -0.5578042 0.4091894 0.5550876 -0.30670556
000090 3f 92 90 3d 24 2a b7 3c 86 0c 2c 3c 72 20 7d bd
       0.07059144 0.022358961 0.010501033 -0.06179852
0000a0 01 58 98 3e 4f b4 a8 3e 45 eb 47 3e 9a d8 80 3e
       0.29754642 0.32950065 0.19523342 0.25165254
0000b0 b8 49 0b 3f 8b 81 a4 bd 21 45 01 bf a4 8f 98 3e
       0.5440936 -0.08032521 -0.5049611 0.2979709
0000c0 89 dd ac 3e 19 dd 0b bf 27 7d 55 3e 6d b0 b9 be
       0.33762768 -0.54634243 0.20848523 -0.36267415
0000d0 09 62 df be d4 17 16 be 08 dc 86 3c 7f c3 80 3e
       -0.43629482 -0.14657527 0.016462341 0.25149152
0000e0 db 7b e5 be 37 7c 09 3e 67 7c 06 bf 21 6e 2e bf
       -0.44821057 0.1342629 -0.5253357 -0.68136793
0000f0 0f 17 73 3e 9b 55 bd 3e 8a 63 b6 3e cd 9f 40 3e
       0.23739265 0.36979374 0.35622817 0.18810959
000100 de 3e 17 bf c2 37 14 bf 2d 17 59 bd 7d f5 fd 3d
       -0.590803 -0.5789758 -0.053000618 0.12400339
000110 4a 9d 88 be 03 df b3 be e3 69 07 bd 55 73 e1 3c
       -0.26682502 -0.35131082 -0.033059966 0.027520815
000120 c6 37 80 be 34 8a 28 bd ab 2e da bd 7d 7a c1 3d
       -0.25042552 -0.041147426 -0.106534325 0.09447191
000130 c5 eb 5c bd ed 65 3c bf ba 6c 8c bd b3 b5 31 3e
       -0.053935785 -0.73593026 -0.068566754 0.17354469
000140 50 6e 56 be 50 b8 91 be 44 74 b9 3a c3 97 8f be
       -0.20940518 -0.28460932 0.001414903 -0.28045473
000150 9c 86 dc 3d a6 6d 49 be 04 7d 9d be de b3 66 be
       0.10767862 -0.19670734 -0.30759442 -0.22529551
000160 af 50 18 3e eb b3 3c 3d d4 dd 34 3e 9b de d4 3e
       0.14874528 0.04607002 0.17662746 0.41576084
000170 14 d6 54 be 28 55 7e be 1e 56 29 bf a0 d8 18 bf
       -0.2078479 -0.24837172 -0.6614703 -0.59705544
000180 cf 91 61 bd b8 44 9a 3e 70 80 1a 3f 24 92 c6 3b
       -0.055070695 0.30130553 0.6035223 0.006059902
000190 2c 9c ad 3d a5 b6 c2 be 7f 37 19 be 0d fb c6 be
       0.08477053 -0.38029972 -0.14962576 -0.38863412
0001a0 7e a5 e8 be f3 22 e1 bd 5e ce c2 bd 90 56 ca 3d
       -0.4543876 -0.10992994 -0.09512018 0.09879792
0001b0 4c 54 e2 bd 3a 68 01 bf f7 b9 fb 3e 19 65 45 bd
       -0.110512346 -0.5054966 0.49165317 -0.048192117
0001c0 e8 7d 21 3f 75 80 b5 3e a4 19 c6 be 63 2a 08 3e
       0.6308274 0.35449567 -0.38691437 0.13297419
0001d0 f0 1a 92 be 2c d7 ab be 27 56 9b 3e 95 dd d1 bc
       -0.28536177 -0.335626 0.30339167 -0.025618354
0001e0 16 24 8b be 39 40 34 bf 8c 38 45 3e e8 99 87 bd
       -0.2717597 -0.70410496 0.19259852 -0.06621152
0001f0 ce 15 87 bd 0e 09 cc 3d 18 54 c5 be c0 f0 27 3e
       -0.06595956 0.099626645 -0.3854072 0.16400433
000200 79 35 e4 3d 3e a3 24 be 1c e5 fd be 83 af da be
       0.111430116 -0.16077897 -0.4958886 -0.4271203
000210 32 ca 6b 3e 48 d4 f3 be 93 22 71 be a4 a6 76 3e
       0.2302635 -0.47622895 -0.23548345 0.24087006
000220 1c 5b a6 bd b8 bb 86 bd 11 ba a4 3e aa be 8d be
       -0.081228465 -0.06578773 0.32173207 -0.27684528
000230 7d 57 a8 be 17 21 42 be 99 14 17 3d cf 73 c9 bd
       -0.32879248 -0.18957935 0.036884878 -0.09836542
000240 1c 2c 3b bd be aa 21 be 86 6a 88 3e 90 be 1e bf
       -0.045696363 -0.15787789 0.2664377 -0.62009525
000250 86 cb 13 bf 5a 37 d2 3e 3a b0 1d bf 50 a4 b8 3e
       -0.5773243 0.41057855 -0.61597025 0.3606286
000260 17 38 83 bf 4c 84 4a bf 28 e9 4b be c7 96 70 3a
       -1.0251492 -0.7910812 -0.19913161 0.0009177741
000270 9b 52 47 3d ce 1a 43 be 01 52 0d 3e 1a d3 5d be
       0.048662763 -0.19053194 0.13800813 -0.2166256
000280 c0 96 74 be 60 97 7a be 68 8a ce bd 43 e6 2d be
       -0.23885632 -0.24471807 -0.10084993 -0.16982369
000290 ea 8f 60 be 62 c9 91 3e ea 12 be 3e c5 46 27 bf
       -0.21929899 0.28473955 0.37123805 -0.6534236
0002a0 8b c3 82 3b 03 06 25 bd 88 74 26 bf 44 a3 7f 3d
       0.0039905957 -0.040288936 -0.6502156 0.06241156
0002b0 0e f3 ca bd 42 c6 90 be 7d e3 f0 3d 66 c9 d4 bd
       -0.0990964 -0.2827626 0.1176214 -0.10389976
0002c0 43 fd 4c bf 30 87 1b 3e 4e da 3b bf 19 37 fa 3c
       -0.80073947 0.15188289 -0.7337998 0.03054385
0002d0 5e 0a 69 3e 88 a8 a6 3d 1a 77 1d 3e b7 98 11 bf
       0.22757861 0.081376135 0.15377465 -0.5687365
0002e0 56 8d e8 be 23 d4 a0 bb b3 df bb bd dd 8b 57 3e
       -0.4542033 -0.004908101 -0.091735266 0.21049447
0002f0 dc 33 58 be 98 63 00 be 43 1a d3 3e ef 74 b2 be
       -0.21113533 -0.12537992 0.41230974 -0.34854838
000300 6b 38 82 be 4f 1e b0 3e 15 51 54 bf 12 5f e9 be
       -0.25433668 0.34398124 -0.8293622 -0.45580345
000310 75 43 f2 3e 92 46 e9 be 32 1b 4b 3f 7d b1 14 3e
       0.4731709 -0.45561653 0.7933837 0.14520831
000320 2e ab 24 bf 07 7c b4 bd c4 12 1c 3f 70 7c 83 3e
       -0.643237 -0.08812719 0.60966134 0.25680876
000330 35 f8 e1 3d 32 5a 26 3e 65 55 d4 be ad 3c e6 bd
       0.1103367 0.16245344 -0.414714 -0.11242042
000340 aa 92 35 bc e0 b2 fe be d1 61 4d 3e b5 38 fd 3e
       -0.011082331 -0.49745846 0.20056845 0.49457327
000350 c1 a6 31 bf 19 a0 16 bf b7 1a 22 bb b8 7e cd 3d
       -0.6939507 -0.5883804 -0.0024735162 0.10033935
000360 aa 54 eb be 1a 0d f6 be 76 71 bb 3e 05 91 bb 3e
       -0.4596303 -0.4805687 0.3661 0.3663408
000370 0e 01 a9 3e 96 52 aa be 3f 23 f2 be 60 d5 e9 be
       0.33008617 -0.33266133 -0.47292516 -0.45670605
000380 ba 0f 60 be fc 2e 8a 3e f3 40 99 3e 53 cf d2 3d
       -0.21880999 0.2698897 0.29932365 0.1029345
000390 70 da 5f 3d f8 d1 46 bf 31 69 1f bf 94 3e 3b 3f
       0.054651678 -0.77664137 -0.62269884 0.7314236
0003a0 7a fb ff be 3f 8c d0 3d 95 fa c1 3e 68 ad 6d 3e
       -0.4999655 0.10183 0.3788649 0.2321068
0003b0 33 5f d6 bd b5 fa 9d 3d b4 1d b6 be 44 45 0c be
       -0.104673766 0.07713834 -0.35569537 -0.13698298
0003c0 ac 56 52 3e 7c fa 17 3d 0e 40 1f bd 4f 28 02 bf
       0.20540875 0.037104115 -0.038879447 -0.50842756
0003d0 ec 00 60 3f cc ce 02 3d 14 21 e6 be 0c 4f 7d 3d
       0.87501407 0.031935498 -0.44947112 0.061842963
0003e0 c4 eb 0f be 1d fd 5f be cb 14 b3 bd e1 d7 25 3e
       -0.14054781 -0.21873899 -0.087442 0.16195633
0003f0 c4 86 ae bd e4 66 d6 3e 95 f2 58 bf 3e ea 32 3d
       -0.08521798 0.41875374 -0.8474515 0.043680422

linear1.bias f4 [256]
000000 10 8d c6 be 23 e0 c6 be ab 9c 4f 3e 41 48 e8 be
       -0.38779497 -0.38842878 0.20274608 -0.45367625
000010 ce 0e b3 3c d4 6f a5 3d 85 40 97 be 6c fa fc bd
       0.021857645 0.0807797 -0.29541412 -0.12352452
000020 d6 cc da bd 44 c5 d1 bd 31 15 19 be 49 5c 5b bb
       -0.106836006 -0.102427036 -0.1494949 -0.0033471754
000030 bd 0a 1c bf ce 6b 34 3e 9f 83 61 be 54 3a 18 bf
       -0.60953885 0.17619249 -0.22022866 -0.59464
000040 76 7c 01 3f e0 1b 25 be c5 e9 5e be 1b 25 af bd
       0.5058054 -0.16123915 -0.21768863 -0.08551999
000050 9d df 80 bb 79 68 1b be 14 08 43 3b 5e b4 00 bf
       -0.003932907 -0.15176572 0.0029759454 -0.5027522
000060 c3 15 99 be c3 ff 48 be 06 9e f4 be 0b 83 8a bd
       -0.29899415 -0.19628815 -0.47776812 -0.06763276
000070 2c b1 f5 3a f2 7b f1 be 11 df 6d be c6 74 c5 be
       0.0018744818 -0.47164875 -0.23229624 -0.38565654
000080 b9 a6 74 3e db ce 94 be fe fd d5 3e 8b 3e 81 be
       0.23891725 -0.29064068 0.41795343 -0.2524303
000090 48 76 62 bd 13 af 9b be 33 97 e7 bd db b1 aa be
       -0.055288583 -0.3040701 -0.11308136 -0.33338818
0000a0 2b d5 b8 bd 42 f4 ae be 0e 40 8e be a9 e3 25 bd
       -0.090250336 -0.3417073 -0.27783245 -0.040500317
0000b0 a3 a8 20 3f 38 17 0b 3f 1c 59 6f 3f 6f 20 4e bb
       0.6275732 0.54332304 0.93495345 -0.0031452437
0000c0 28 52 92 be 38 47 9b be 7e b2 9e be 5b a2 4e be
       -0.28578305 -0.30327773 -0.30995554 -0.20179121
0000d0 0a 35 08 be d4 01 78 3e 45 92 0f 3c 44 05 2c 3e
       -0.13301483 0.24219447 0.008762901 0.16798884
0000e0 6a 3b 89 be db 23 13 be 53 3e 65 be 9d ef a6 bd
       -0.26803142 -0.14369147 -0.22387056 -0.08151171
0000f0 84 29 8b 3e 0d 3b c3 be 2d 77 1f be 8f 2c 31 3e
       0.2718011 -0.3813099 -0.15572806 0.17302154
000100 51 90 0d be e8 c8 3c 3e 4e 9d 9e be d9 5e 8d 3b
       -0.13824584 0.18436015 -0.3097939 0.0043142852
000110 b3 f7 14 3f fd f8 06 be c4 0a 2b be 4c 3d be be
       0.5819046 -0.13180919 -0.16703326 -0.3715614
000120 23 8c d9 be 5f 4f bc 3e e8 78 15 bd c6 26 cb 3b
       -0.42489728 0.36779305 -0.03649226 0.0061996905
000130 9b 45 a9 be 50 f3 95 be 4a 95 bd be 2c ce d1 bd
       -0.33060917 -0.29287195 -0.3702796 -0.10244402
000140 59 52 ac be 0e 8c ec be e0 e7 06 be 01 d4 2b 3e
       -0.33656576 -0.46200603 -0.13174391 0.16780092
000150 5d d3 0b bf b8 2e b5 be 96 61 26 bf 7b 42 34 bc
       -0.5461939 -0.35387206 -0.64992654 -0.011002178
000160 73 17 c2 be ca 38 04 bf 25 4b 79 be e2 c9 a7 bd
       -0.37908515 -0.51649153 -0.24345072 -0.08192803
000170 02 3b 81 3e 63 a7 f7 be 60 63 cb be a6 cd c1 3d
       0.25240332 -0.48369893 -0.39724255 0.094630525
000180 47 49 a1 be 8c 3e ad 3e 37 48 c0 be 86 cb 51 3e
       -0.3150122 0.33836782 -0.37555096 0.20487794
000190 26 e1 9f be 05 76 c5 be 5e 8e 3b be 61 4f 7d be
       -0.31226462 -0.38566604 -0.18316028 -0.24737312
0001a0 28 bd b3 3e 37 31 a3 be 2c 49 6a be 13 8c 88 3e
       0.35105252 -0.31873485 -0.22879475 0.26669368
0001b0 d9 6e 3f be 15 40 f0 3d 85 74 56 be 47 81 0f 3e
       -0.18694629 0.11730973 -0.20942886 0.14014159
0001c0 e0 1f 9d be 2d 4b 57 3b 90 56 77 bd 78 dd 68 be
       -0.3068838 0.0032851205 -0.060385287 -0.22740734
0001d0 02 13 1b be 8e aa 0b 3f 48 1c 95 3d b6 44 c1 be
       -0.1514397 0.5455712 0.07280785 -0.37747735
0001e0 99 65 8d be 15 df 7a 3c 6d 03 22 be b3 4f b7 be
       -0.27616575 0.015311976 -0.1582162 -0.35802993
0001f0 a3 b2 f2 be ea 7d 76 be a9 32 77 bd 33 f9 11 be
       -0.47401914 -0.2407147 -0.060351048 -0.14255218
000200 ba cc 1e bf e3 62 d5 be 3e a9 8f be be a6 08 3e
       -0.6203114 -0.41677007 -0.2805881 0.13344857
000210 a2 53 2f 3f 55 f4 ca bd 08 4b de 3c 96 48 c7 be
       0.6848699 -0.09909884 0.027135387 -0.38922566
000220 d9 69 8b 3e f6 16 0f 3f 57 24 a4 be 79 d4 8a 3e
       0.27229193 0.5589441 -0.32058975 0.2711523
000230 9f aa 06 be 4d e3 f2 3f e2 bb 29 be 2e 1f 86 3d
       -0.13151024 1.8975617 -0.16575578 0.06548916
000240 90 01 a0 be e4 bf 27 be e9 7c fe be 1d 96 a3 be
       -0.31251192 -0.16381794 -0.49704674 -0.31950465
000250 d0 a5 45 be ab 4a 0c be 9f e1 08 be 1b 3c 20 bd
       -0.19301534 -0.13700359 -0.13367318 -0.03911982
000260 4c 08 9a bc 87 b4 ba bd 42 ea 05 3f 50 2f 0d bf
       -0.018802784 -0.09116464 0.52310574 -0.5515032
000270 dc 5a 13 3e 9e ce 82 be c1 95 96 3e 0b a1 b3 3e
       0.14390129 -0.2554826 0.29411128 0.35083804
000280 b1 75 80 be e1 2e 17 bf d8 cf ab 3b e8 70 6a be
       -0.2508979 -0.59055907 0.0052432828 -0.22894633
000290 1f 78 9d be c0 70 13 be c1 12 a3 be 1f e8 cf be
       -0.30755708 -0.1439848 -0.31850246 -0.40606782
0002a0 b6 9d 35 3f 03 69 ff be 77 52 4a be 8a 3f b8 be
       0.7094377 -0.49884805 -0.1975802 -0.35985976
0002b0 1a 15 28 be a5 ab 13 be 14 8b 72 3e ef 83 c4 be
       -0.164143 -0.14420946 0.23685867 -0.38381907
0002c0 50 64 88 bd 56 fb ca be 41 d7 52 3e de 62 b2 be
       -0.06659758 -0.3964488 0.20589925 -0.34841055
0002d0 53 77 27 be 5f c6 f0 bd aa 66 aa be 3f 4d d3 be
       -0.16354112 -0.11756586 -0.3328145 -0.41269872
0002e0 7b 67 94 3e a0 e5 c9 be d4 3a 17 bf bb e0 9b be
       0.289852 -0.39433002 -0.5907414 -0.30444893
0002f0 57 c1 95 be 87 63 18 3d c8 e7 28 be 30 cd a7 be
       -0.2924907 0.03720429 -0.16494668 -0.32773733
000300 33 ff cf be f4 25 6a be e1 66 ce be 6c 4c 64 be
       -0.4062439 -0.2286604 -0.40312865 -0.22294778
000310 05 49 c3 be 14 26 50 be f0 c1 7e be df 83 99 be
       -0.38141647 -0.20327026 -0.24878669 -0.29983422
000320 4a 7e 14 bd e7 52 6c be 34 01 51 bd d2 e1 d7 bc
       -0.03625325 -0.230785 -0.051026538 -0.026352797
000330 72 31 10 3e 0c 61 af bd 10 fa 68 be ae a7 b4 bd
       0.14081362 -0.08563432 -0.22751641 -0.08821045
000340 d3 0a 92 be 5d 08 9e be ce 14 05 3e db 05 b2 be
       -0.28523883 -0.30865756 0.12996218 -0.34770092
000350 a3 be 37 3e 82 51 06 3f 9d e0 9b 3e e9 dc 94 3e
       0.17943816 0.5246812 0.30444804 0.2907479
000360 c2 a1 f3 3b 0b 55 b7 bd 3e a1 e5 3d a0 34 a8 be
       0.0074350545 -0.089517675 0.11212395 -0.3285265
000370 48 c0 b5 bd 08 da d2 bd 5e 41 8f be cf b3 b2 bd
       -0.08874565 -0.102954924 -0.2797956 -0.08725702
000380 a6 75 e8 be b0 67 c7 3d 35 5c 15 3f 32 64 c1 3e
       -0.4540226 0.09736574 0.5834382 0.37771755
000390 ae d9 47 3e 3b 62 6b 3e d4 a4 0b bf 43 a8 b7 3e
       0.19516632 0.2298669 -0.5454838 0.3587056
0003a0 d8 83 b2 be 5d 2e 93 be 44 8e 19 3f 0b dc 11 bf
       -0.34866214 -0.2874631 0.59982705 -0.56976384
0003b0 66 fd 30 3d 29 20 ca be 2f ee 95 be e6 1f 9a be
       0.04321041 -0.3947766 -0.29283282 -0.30102462
0003c0 46 a4 20 bd 83 71 23 3f b3 f1 f8 3c 0a 75 e6 be
       -0.039219163 0.6384508 0.030388689 -0.4501117
0003d0 ef 12 50 3e 22 e3 e6 bd 17 60 fa 3e 48 5d 74 be
       0.20319723 -0.11273791 0.48901436 -0.23863709
0003e0 14 d1 03 bf 5d a8 f6 be 9f 9e c1 3e cc 2e 35 3c
       -0.514909 -0.48175326 0.3781633 0.0110585205
0003f0 6d 28 98 be 45 64 dc bc 63 6c d3 bc 3f c9 ff 3d
       -0.29718342 -0.026903281 -0.025808519 0.124895565

linear2.weight f4 [3, 256]
000000 f5 ad 4b bd 18 e7 b4 3c d4 31 a7 3e 56 8b 9f bd
       -0.049726445 0.02208285 0.32655203 -0.07790248
000010 39 92 32 3d f6 57 35 be 6b 5a ed bb 15 bf 41 39
       0.04359648 -0.17709336 -0.0072434447 0.00018477098
000020 88 e0 84 be 84 63 17 be 42 a6 e1 bd c3 b2 c0 bd
       -0.25952554 -0.14784056 -0.11018039 -0.09409096
000030 41 ba 15 be ff 45 5b bf 67 cb 18 bc 56 63 58 bc
       -0.14621831 -0.8565368 -0.009325839 -0.013207277
000040 4d 7e 1b 3e 15 b4 17 bf e8 d0 27 be be 85 be 3e
       0.15184899 -0.5925916 -0.16388285 0.37211412
000050 31 20 d6 bd 43 8e 23 be 9b 58 10 3e f3 f3 0d bd
       -0.10455359 -0.15972237 0.140963 -0.034656476
000060 cb 42 c2 bc dc d9 2b 3d 15 b6 09 3d 44 ce d9 be
       -0.02371349 0.041955814 0.033620913 -0.4254018
000070 ea 76 20 bf 58 23 40 bc 61 57 48 be 4b e6 63 3b
       -0.6268145 -0.011727177 -0.19564582 0.0034774716
000080 4a 42 3d be 38 54 47 3c 01 1d ce 3e 2f 2b 60 bd
       -0.18482319 0.012166075 0.40256503 -0.054728683
000090 f3 7b 11 be 7f 43 ec bd 4f 43 1f 3e f4 13 5a be
       -0.14207439 -0.11536311 0.1555302 -0.21296674
0000a0 6c 52 52 bb be ce 0a be 0b ff 28 bd a8 56 eb be
       -0.0032092584 -0.13555428 -0.041258853 -0.4596455
0000b0 bb e9 93 3e c5 36 9f 3e ae 68 07 3e a6 d5 84 3e
       0.2888926 0.31096473 0.13223526 0.2594425
0000c0 b4 43 e7 3b c2 97 e4 3d 27 df 7e be 00 fb e2 3d
       0.0070576314 0.11161758 -0.24889813 0.11083031
0000d0 59 78 83 3d 58 c1 13 3f d9 e0 42 be dc f5 3d 3e
       0.06419439 0.57716894 -0.19031085 0.18550819
0000e0 0b 7a 70 bc 2f 9a 01 bf 2a 9f ca bc 9e d1 68 bd
       -0.014677535 -0.5062589 -0.024734098 -0.05684053
0000f0 c0 11 21 3f ea 44 e0 38 ce 48 36 bb d8 a9 a8 3e
       0.6291771 0.000106939886 -0.002781439 0.3294208
000100 81 fb 95 bd d8 94 a7 be 83 2a db 3d 4d 9c fb 3b
       -0.07323361 -0.32730746 0.10701468 0.0076785446
000110 b7 56 48 3e 20 cf 36 bf 4f ee 32 bd de c6 6d 3c
       0.19564329 -0.714098 -0.0436843 0.014512746
000120 91 10 54 3d 38 f2 60 3e 50 11 3c bc a5 5f 35 3c
       0.05177361 0.21967399 -0.011478737 0.011070167
000130 76 40 01 be b3 0c 86 be 7c d5 d8 39 88 2e b4 be
       -0.12622246 -0.26181564 0.0004135779 -0.3519175
000140 9c b6 dd bc 87 6e 14 be 76 e4 94 bd 4e 84 83 3e
       -0.027064614 -0.14495288 -0.07270138 0.25686878
000150 77 2e 2d be 0c 8b cc 3c bc 78 28 be 13 d5 56 3d
       -0.16912256 0.024968646 -0.16452307 0.052449297
000160 50 99 ca bd 20 c8 ae be 89 94 96 be af 02 01 be
       -0.09892523 -0.34137058 -0.29410198 -0.1259868
000170 79 be 8b 3e 48 96 17 bc 15 ca 00 3a b1 3c 13 3f
       0.27293757 -0.009252138 0.0004912925 0.5751448
000180 35 5c 1b bd fc e9 82 3e 32 37 14 3e 6b a1 b0 3e
       -0.037929732 0.2556914 0.1447418 0.34498152
000190 9e 9a d7 3d cb 7c a6 3c 3f 40 27 be f5 db 8d bd
       0.10527538 0.020323178 -0.16333102 -0.06926719
0001a0 53 5b e6 3e b1 1b f6 bc 7b dc d1 bd 02 5b bb 3e
       0.4499155 -0.030042501 -0.102471314 0.3659287
0001b0 25 b9 ad bc e9 be 05 3d 9c 22 31 bc ec 64 2f bf
       -0.021206448 0.03265277 -0.010811474 -0.6851337
0001c0 2a f4 9a 3d b3 c1 11 3e 0a 08 f5 be c0 15 85 3e
       0.07566102 0.14234047 -0.47857696 0.25993156
0001d0 32 43 91 be d2 d9 db 3e d8 c4 8d be 2e fe 90 be
       -0.28371578 0.4293962 -0.27689242 -0.28318924
0001e0 d8 df ad bc bd 36 7e bd f7 3d 0c bd 68 f8 4a 3b
       -0.021224901 -0.06206392 -0.03423878 0.0030970816
0001f0 e6 88 10 be 50 86 4a bd dd 05 51 be 21 02 0a be
       -0.14114723 -0.049444497 -0.20412393 -0.13477375
000200 c4 60 20 bb 15 24 02 be 06 ff 4a bd 90 b9 f1 3d
       -0.002447174 -0.12709077 -0.049559616 0.11802971
000210 58 26 5a 3e 79 22 5f bc 03 4a 33 3d 67 5f 02 3c
       0.2130369 -0.013619059 0.043771755 0.007957316
000220 77 75 bc 3e 37 26 72 3e 50 36 35 be 88 3b 8e 3e
       0.3680837 0.2364739 -0.176965 0.27779794
000230 af 57 30 bf c7 99 d1 3e 9b 43 81 3c 48 47 a7 be
       -0.68883795 0.40937635 0.015779307 -0.3267157
000240 0f 3c e5 bc 03 db 71 be 9f 9b 59 bd 06 4c 8b bc
       -0.02798274 -0.23618703 -0.053126927 -0.017004024
000250 01 17 87 3c 7d 78 e0 be 8a 26 0c bf 71 44 25 3e
       0.016490461 -0.43841925 -0.54746306 0.1613939
000260 57 0d 9f be 37 72 3d be 2c ed 25 3f 84 66 2f 3b
       -0.31064865 -0.18500601 0.6481502 0.0026763985
000270 1d 24 a7 3e af 6e 0d bb 44 d6 99 3e a4 eb c3 3e
       0.3264474 -0.0021580865 0.30046284 0.38265717
000280 f7 03 c0 3d 07 12 df bc 77 3d 2f bd e9 f0 18 bf
       0.09375756 -0.027230276 -0.042783227 -0.597426
000290 54 f1 3f bd a8 2d 5e 38 e1 9f 90 bd 19 61 e2 3c
       -0.046861008 5.2971445e-05 -0.070617445 0.02763419
0002a0 09 18 b4 3e 0b 62 ae 3c ea c6 05 3d 5d a4 8b be
       0.35174587 0.021286985 0.032660402 -0.27273837
0002b0 29 1e 30 bd ba 6b e8 be 98 a2 2a 3f d4 9d ed be
       -0.042997513 -0.4539469 0.6665435 -0.46409476
0002c0 8a 84 de bc b1 31 d9 3c 38 77 47 be f4 72 b8 bc
       -0.027162809 0.026512953 -0.19479072 -0.022515751
0002d0 8e 6b d3 be 9e 03 70 be ce 95 6c bd d0 fb 0b 3d
       -0.41292995 -0.2343888 -0.057760052 0.034175694
0002e0 35 11 a0 3e 28 eb 7a 3d 55 ab 62 be d1 65 80 bd
       0.31263128 0.06125942 -0.2213567 -0.0626942
0002f0 13 14 29 be 99 26 88 3b ee 7c 7e be bb cc d1 3d
       -0.16511564 0.004154992 -0.24852344 0.10244127
000300 0c 9c d7 bd 6b ca e0 be 8a 99 14 3d 74 d0 e4 b9
       -0.105278105 -0.43904433 0.03627924 -0.00043642859
000310 bd b8 28 bc 43 85 04 bc d6 51 59 bd 1a 16 c1 bc
       -0.010297951 -0.008088413 -0.05305656 -0.02357011
000320 f6 bc 3e 3e f3 72 1c bc f1 ab 48 bc 4a e4 41 3d
       0.1862677 -0.00954889 -0.012248025 0.047336854
000330 4f 9a 80 3b e3 c1 33 3e 18 e1 a3 3b 47 e3 aa be
       0.003924645 0.1755443 0.0050011985 -0.33376524
000340 16 68 8d 3b 96 b6 65 be e1 18 4a 3e 6a 8b fb bd
       0.0043153865 -0.22432932 0.19736053 -0.122824505
000350 fb 29 b6 3e d8 04 d4 3e e3 9a 87 3e 8b d3 3c 3e
       0.35578904 0.41409945 0.26485357 0.18440072
000360 b6 9e 7a 3e cd 68 86 be 8d 17 0c 39 04 e0 c3 bc
       0.24474606 -0.26251832 0.00013360214 -0.02391053
000370 22 69 9d 3c ec 3f bb 3c 2e 41 b2 bb 17 36 19 bf
       0.01921517 0.022857629 -0.005439899 -0.5984816
000380 f4 c0 91 bc de 94 01 3f e1 67 12 3f 09 bf 92 3e
       -0.017792203 0.5061778 0.57189757 0.28661373
000390 04 6e 83 3d 07 ba ae 3d bb cb 13 be fe 2b e0 3e
       0.06417468 0.08531576 -0.14433186 0.43783563
0003a0 7b a3 8c be bc 18 02 bd a9 98 a5 3e 09 b5 17 bb
       -0.27468476 -0.03176187 0.32343033 -0.0023148677
0003b0 38 cb 2a bc af 01 c3 bc 30 b7 a5 3d 8d 91 ba 3c
       -0.010424428 -0.023804514 0.08091581 0.022774482
0003c0 13 7b ce 3d 97 86 80 3e 04 c7 23 3f ec fb d0 bc
       0.10082068 0.25102684 0.6397555 -0.02551075
0003d0 dd 99 ed 3e 73 ea 00 3d f5 d6 07 be d4 23 ba bd
       0.4640645 0.03147359 -0.13265593 -0.09088865
0003e0 86 b5 b6 bd 20 15 23 bd 37 d3 1a 3f fa d9 e6 bd
       -0.089213416 -0.03981507 0.6047854 -0.112720445
0003f0 40 b9 c8 bd 8c f6 07 be 78 98 06 3f f8 4e b0 bb
       -0.09800959 -0.13277644 0.525764 -0.0053805076

linear2.bias f4 [3]
000000 fc d6 d5 3e 75 ab 44 3d 39 ba 8c bb
       0.41765583 0.048015077 -0.0042946604
